TrainData.pth (torch, 3551 bytes, 6 tensors)

l1.weight f4 [8, 18]
-0.037093032 -0.05978168 -0.14138764 -0.39091292 -0.026632562 0.47829393 0.58536255 0.5704276
0.046014987 -0.21131197 -0.07699493 -0.2526198 -0.35772675 -0.20628297 -0.17109661 -0.078433946
-0.15354481 0.0039574476 0.16355278 0.29453474 0.13372123 0.79875636 0.36066058 -0.34005466
-0.42632517 -0.51309186 0.4523202 0.21280612 0.38224182 0.14194901 0.39517534 0.3309922
0.26801202 0.6006311 0.2656888 0.4028901 -0.17380628 0.23364258 -0.22047529 -0.02203603
-0.18910341 -0.22682296 0.011897668 0.027837552 -0.11509594 -0.09894179 0.008553768 0.5731414
-0.24599731 0.12297333 -0.27831376 0.5258519 0.011362636 0.04579769 -0.28323403 0.43575123
-0.032056633 0.63888484 0.47142708 -0.2808992 -0.28096768 -0.1865029 -0.014671098 0.124969065
-0.2783589 0.3434198 0.07391642 0.049990755 -0.30309182 0.15222159 0.05719291 -0.19271836
0.76152277 -0.43000808 0.47957003 -0.48558682 -0.15084755 0.36868516 0.3794131 0.2729574
0.65561134 0.46162298 0.5202313 -0.10969544 0.5438973 0.5478763 0.4139161 0.24363956
0.5992901 0.60261273 -0.33601627 0.37836918 -0.27334806 0.407405 0.25296003 0.50031173
0.40361243 0.55816954 -0.080492325 -0.18494365 -0.25038585 0.1676306 -0.11010935 -0.31268457
-0.35780185 -0.09794294 -0.085486285 -0.28304324 0.3661009 -0.2784079 0.6232245 -0.2907599
0.0013691414 -0.008180131 -0.21745375 -0.086524904 0.228768 0.2530285 0.30764425 -0.29806522
0.5780006 0.35655707 0.43332332 0.31051648 0.1600876 0.26520264 -0.31780463 0.2222315
-0.25764468 -0.3443624 0.034405183 0.5599562 0.4530265 0.63514423 -0.18199605 -0.11044859
-0.31136474 -0.057759665 -0.082201295 -0.2425746 -0.19584425 -0.19056113 0.09205047 -0.24380416
00000000: ddee 17bd a3dd 74bd ecc7 10be bd25 c8be
00000010: 882c dabc f1e2 f43e 52da 153f 8b07 123f
00000020: 367a 3c3d 2a62 58be 85af 9dbd 6257 81be
00000030: f627 b7be d83b 53be f333 2fbe faa1 a0bd
00000040: da3a 1dbe 7aad 813b 617a 273e 42cd 963e
00000050: 38ee 083e 4c7b 4c3f 81a8 b83e a51b aebe
00000060: 4b47 dabe fd59 03bf 8396 e73e d9e9 593e
00000070: 33b5 c33e 155b 113e 6c54 ca3e cf77 a93e
00000080: df38 893e f6c2 193f 5d08 883e 9c47 ce3e
00000090: 46fa 31be 0040 6f3e 46c4 61be e884 b4bc
000000a0: 53a4 41be 4744 68be 70ee 423c 940b e43c
000000b0: 6cb7 ebbd fea1 cabd 1a25 0c3c 65b9 123f
000000c0: b8e6 7bbe 71d9 fb3d 247f 8ebe 3b9e 063f
000000d0: 5a2a 3a3c 5c96 3b3d 0d04 91be c91a df3e
000000e0: d14d 03bd f58d 233f e45e f13e 05d2 8fbe
000000f0: ffda 8fbe 9efa 3ebe 0c5f 70bc c8ef ff3d
00000100: 0f85 8ebe b8d4 af3e 7e61 973d 1bc3 4c3d
00000110: da2e 9bbe fadf 1b3e 1d43 6a3d f657 45be
00000120: 28f3 423f 052a dcbe 348a f53e d69e f8be
00000130: c877 1abe 4dc4 bc3e 6f42 c23e 13c1 8b3e
00000140: 25d6 273f d959 ec3e e12d 053f 01a8 e0bd
00000150: da3c 0b3f 9f41 0c3f d0ec d33e a67c 793e
00000160: 136b 193f d444 1a3f 530a acbe 9bb9 c13e
00000170: 47f4 8bbe 6397 d03e fa83 813e 6e14 003f
00000180: 4aa6 ce3e 33e4 0e3f 29d9 a4bd de61 3dbe
00000190: 9332 80be 5ba7 2b3e 0381 e1bd 3118 a0be
000001a0: ce31 b7be 4f96 c8bd 6f13 afbd 0beb 90be
000001b0: 9471 bb3e 7b8b 8ebe a48b 1f3f 7bde 94be
000001c0: c374 b33a f505 06bc 32ac 5ebe f833 b1bd
000001d0: 2942 6a3e f48c 813e 8c83 9d3e 019c 98be
000001e0: d9f7 133f a68e b63e 8edc dd3e 04fc 9e3e
000001f0: 01ee 233e a4c8 873e 4ab7 a2be a890 633e
00000200: 01ea 83be 4550 b0be 73ec 0c3d 4a59 0f3f
00000210: 17f3 e73e d098 223f 2c5d 3abe df32 e2bd
00000220: 336b 9fbe 6695 6cbd 2759 a8bd 7a65 78be
00000230: 658b 48be 7522 43be f584 bc3d cca7 79be

l1.bias f4 [8]
0.39082128 0.5988098 -0.027850758 0.28090924 0.4856143 0.72909117 0.28916058 0.64382434
00000000: ba19 c83e 994b 193f 4627 e4bc 56d3 8f3e
00000010: 70a2 f83e b8a5 3a3f db0c 943e acd1 243f

l2.weight f4 [8, 8]
-0.27369204 0.6290849 -0.018600745 -0.26882902 0.5019773 -0.73803717 0.6163588 -0.111195974
-0.6844734 0.87485594 0.7122779 0.8471422 0.24365819 0.20894548 0.1376834 -0.20955597
-0.43282023 0.52012354 -0.3228041 -0.0031065221 0.40917075 -0.55905896 0.6638586 -0.5442495
0.23291363 -0.12521692 0.23173806 -0.3514514 0.06262067 0.69365287 -0.17272736 0.7075966
0.5957483 -0.31816238 -0.14594543 -0.5993608 0.9915967 0.6936362 0.2568791 0.735969
-0.84038866 0.7011507 0.7672274 0.772426 -0.503336 0.4520601 -0.6380198 0.035111748
0.4589131 0.36732113 -0.18910678 0.2394656 -0.26689956 0.5324936 -0.42963353 0.053242944
-0.006335853 0.1056812 0.21068606 -0.1941567 0.04487508 -0.2428471 -0.19967912 -0.06371537
00000000: 5d21 8cbe b50b 213f 9760 98bc f5a3 89be
00000010: 9681 003f 01f0 3cbf b1c9 1d3f b7ba e3bd
00000020: a639 2fbf 8ff6 5f3f d857 363f 50de 583f
00000030: 8881 793e cef5 553e e1fc 0c3e d795 56be
00000040: 9d9a ddbe d126 053f 9446 a5be cb96 4bbb
00000050: d47e d13e 7d1e 0fbf a3f2 293f ef53 0bbf
00000060: e980 6e3e dd38 00be be4c 6d3e 70f1 b3be
00000070: 443f 803d 3c93 313f 71df 30be 0d25 353f
00000080: f682 183f 2ee6 a2be b872 15be b66f 19bf
00000090: 48d9 7d3f 2492 313f a885 833e 7768 3c3f
000000a0: b623 57bf 9d7e 333f 0469 443f b6bd 453f
000000b0: a1da 00bf 6c74 e73e 4455 23bf 56d1 0f3d
000000c0: a8f6 ea3e 8411 bc3e 35a5 41be 7836 753e
000000d0: 0fa7 88be 8051 083f edf8 dbbe 4615 5a3d
000000e0: fd9c cfbb 636f d83d 16be 573e 04d1 46be
000000f0: efce 373d e9ac 78be af78 4cbe 347d 82bd

l2.bias f4 [8]
0.24009214 0.28964245 0.45233113 0.30768532 -0.012699624 0.56011695 0.53173786 -0.2876684
00000000: b7da 753e 044c 943e f297 e73e ee88 9d3e
00000010: 1512 50bc d363 0f3f f91f 083f 4649 93be

l3.weight f4 [3, 8]
-0.7556336 0.38650978 0.0039273854 0.025667237 -0.95539105 0.46621847 0.30786154 0.111200094
-0.67553914 -0.792076 -0.35449052 0.7906841 0.7561064 -0.99432963 0.34718132 -0.36339912
0.8990664 0.10130344 0.7011059 -0.6069208 -0.3879398 -0.82485867 -0.49426737 -0.004611893
00000000: 3471 41bf 9ce4 c53e 4cb1 803b 1944 d23c
00000010: 8294 74bf 30b4 ee3e 07a0 9d3e e0bc e33d
00000020: 22f0 2cbf 7ec5 4abf c87f b5be 466a 4a3f
00000030: 3090 413f 638c 7ebf c0c1 b13e 730f babe
00000040: 3729 663f 2e78 cf3d ad7b 333f 295f 1bbf
00000050: 0ca0 c6be f029 53bf 9d10 fdbe 5d1f 97bb

l3.bias f4 [3]
-0.11555461 0.124797866 -0.3066636
00000000: e5a7 ecbd 0696 ff3d 0303 9dbe
